…
ape(1, -1))\n","\n","        # Differenze finite centrali\n","        J[:, i] = (y_plus - y_minus).flatten() / (2 * epsilon)\n","    return J\n"]},{"cell_type":"code","execution_count":null,"metadata":{"id":"zm5GsPraR638","colab":{"base_uri":"https://localhost:8080/"},"executionInfo":{"status":"ok","timestamp":1733394662215,"user_tz":-60,"elapsed":2019,"user":{"displayName":"daniele sabatini","userId":"09250324401392693043"}},"outputId":"f7615ed2-c51d-4f0d-8d5e-1cbca54018f3"},"outputs":[{"output_type":"execute_result","data":{"text/plain":["NeuralNetwork(\n","  (layers): ModuleList(\n","    (0): Linear(in_features=5, out_features=32, bias=True)\n","    (1): Linear(in_features=32, out_features=64, bias=True)\n","    (2): Linear(in_features=64, out_features=80, bias=True)\n","    (3): Linear(in_features=80, out_features=64, bias=True)\n","    (4): Linear(in_features=64, out_features=32, bias=True)\n","    (5): Linear(in_features=32, out_features=3, bias=True)\n","  )\n",")"]},"metadata":{},"execution_count":12}],"source":["training_history = torch.load(\"/content/drive/MyDrive/Machine_Learning/HW1/ROBOT_5_ARMS_models/model_state_dict_r5_NO_PREPROCESSING.pt\", weights_only=False)\n","best_hidden_sizes = training_history[\"hyperparameters\"][\"hidden_sizes\"]\n","model = NeuralNetwork(hidden_sizes=best_hidden_si
…
ers\"][\"hidden_sizes\"]\n","model = NeuralNetwork(hidden_sizes=best_hidden_sizes)\n","model.load_state_dict(training_history[\"model_state_dict\"])\n","model.eval()"],"metadata":{"colab":{"base_uri":"https://localhost:8080/"},"id":"Vk8Xjg2lvphu","executionInfo":{"status":"ok","timestamp":1733384133718,"user_tz":-60,"elapsed":519,"user":{"displayName":"daniele sabatini","userId":"09250324401392693043"}},"outputId":"da552b53-2bb7-400e-f923-27736694bf2c"},"execution_count":null,"outputs":[{"output_type":"execute_result","data":{"text/plain":["NeuralNetwork(\n","  (layers): ModuleList(\n","    (0): Linear(in_features=5, out_features=32, bias=True)\n","    (1): Linear(in_features=32, out_features=64, bias=True)\n","    (2): Linear(in_features=64, out_features=80, bias=True)\n","    (3): Linear(in_features=80, out_features=64, bias=True)\n","    (4): Linear(in_features=64, out_features=32, bias=True)\n","    (5): Linear(in_features=32, out_features=3, bias=True)\n","  )\n",")"]},"metadata":{},"execution_count":21}]},{"cell_type":"code","source":["initial_joints = torch.tensor([0.0, 0.0, np.pi/4, 0.0, 0.0], requires_grad=True)\n","#target_position = torch.tensor([-0.1, -0.1])\n","target_position = torch.tensor(y_test.sample(n=1).to_numpy().flatten(), dtype=torch.float32)\n","print(target_position)\n","\n","compare
…
ers\"][\"hidden_sizes\"]\n","model = NeuralNetwork(hidden_sizes=best_hidden_sizes)\n","model.load_state_dict(training_history[\"model_state_dict\"])\n","model.eval()"],"metadata":{"colab":{"base_uri":"https://localhost:8080/"},"id":"me1Onrpczaxf","executionInfo":{"status":"ok","timestamp":1733385108943,"user_tz":-60,"elapsed":237,"user":{"displayName":"daniele sabatini","userId":"09250324401392693043"}},"outputId":"5f07b2a4-9b34-4a69-9128-9fa40289ef79"},"execution_count":null,"outputs":[{"output_type":"execute_result","data":{"text/plain":["NeuralNetwork(\n","  (layers): ModuleList(\n","    (0): Linear(in_features=5, out_features=32, bias=True)\n","    (1): Linear(in_features=32, out_features=64, bias=True)\n","    (2): Linear(in_features=64, out_features=80, bias=True)\n","    (3): Linear(in_features=80, out_features=64, bias=True)\n","    (4): Linear(in_features=64, out_features=32, bias=True)\n","    (5): Linear(in_features=32, out_features=3, bias=True)\n","  )\n",")"]},"metadata":{},"execution_count":44}]},{"cell_type":"code","source":["initial_joints = torch.tensor([0.0, 0.0, np.pi/4, 0.0, 0.0], requires_grad=True)\n","#target_position = torch.tensor([-0.1, -0.1])\n","target_position = torch.tensor(y_test.sample(n=1).to_numpy().flatten(), dtype=torch.float32)\n","print(target_position)\n","\n","compare
…
eters\"][\"hidden_sizes\"]\n","model = NeuralNetwork(hidden_sizes=best_hidden_sizes)\n","model.load_state_dict(training_history[\"model_state_dict\"])\n","model.eval()"],"metadata":{"colab":{"base_uri":"https://localhost:8080/"},"id":"5lYyYk6EiXbt","executionInfo":{"status":"ok","timestamp":1733397440613,"user_tz":-60,"elapsed":215,"user":{"displayName":"daniele sabatini","userId":"09250324401392693043"}},"outputId":"01e19da5-471e-4bb0-859d-bf8a3a6ba287"},"execution_count":37,"outputs":[{"output_type":"execute_result","data":{"text/plain":["NeuralNetwork(\n","  (layers): ModuleList(\n","    (0): Linear(in_features=5, out_features=32, bias=True)\n","    (1): Linear(in_features=32, out_features=64, bias=True)\n","    (2): Linear(in_features=64, out_features=80, bias=True)\n","    (3): Linear(in_features=80, out_features=64, bias=True)\n","    (4): Linear(in_features=64, out_features=32, bias=True)\n","    (5): Linear(in_features=32, out_features=3, bias=True)\n","  )\n",")"]},"metadata":{},"execution_count":37}]},{"cell_type":"code","source":["initial_joints = torch.tensor([0.0, 0.0, np.pi/4, 0.0, 0.0], requires_grad=True)\n","#target_position = torch.tensor([-0.1, -0.1])\n","target_position = torch.tensor(y_test.sample(n=1).to_numpy().flatten(), dtype=torch.float32)\n","print(target_position)\n","\n","compare
…
